Unity/2Dtest/Assets/ML-Config/model_wrapped_yuri.onnx (onnx, 22143 bytes, 6 tensors)

ray_torchmodel._hidden_layers/_hidden_layers/0/_model/_model/0/Gemm.weight f4 [64, 4]
0	0x3ee0788f	0.4384198
1	0xbf8f5e86	-1.1200721
2	0x3d5306df	0.051520225
3	0x3e71de4f	0.2361996
4	0xbe88fa1e	-0.26753324
5	0x3e45ee5e	0.19329211
6	0x3f806a75	1.0032488
7	0xbcfe39a7	-0.03103335
8	0x3ea9785f	0.33099648
9	0x3d7a5e8f	0.061125334
10	0xbf3902b3	-0.72269744
11	0x3f3fb51a	0.74885714
12	0xbee70123	-0.45118055
13	0xbf81bb61	-1.0135309
14	0xbe97a969	-0.29621437
15	0xbcb1fb5a	-0.0217263
16	0x3ea27fd0	0.31738138
17	0xbefbf616	-0.49211186
18	0x3e7107d1	0.23538138
19	0x3f76746f	0.96271414
20	0x3f1dcefb	0.6164395
21	0x3dd3a105	0.103334464
22	0x3f122dbb	0.5710103
23	0x3ed36e87	0.41295263
24	0xbfc7cadd	-1.5608784
25	0xbdd49f99	-0.10382003
26	0xbdda8637	-0.10670131
27	0xbd7c83c1	-0.061649088
28	0x3eeb1f74	0.45922434
29	0x3f25c18d	0.6474846
30	0xbf120b92	-0.57048905
31	0xbeea6767	-0.45782015
32	0x3f89c4bb	1.0763162
33	0x3f1a0661	0.60165983
34	0xbe3a2245	-0.18177135
35	0xbdb02785	-0.08601288
36	0xbebf1215	-0.37318483
37	0xbf3279af	-0.69716924
38	0xbf5b4e08	-0.8566594
39	0xbe14d28c	-0.14533442
40	0x3e94b4bd	0.29044142
41	0x3ed747c9	0.42046955
42	0xbf451ee7	-0.7700028
43	0xbee61535	-0.44938055
44	0x3b5936c2	0.003314421
45	0x3f5a1939	0.85194737
46	0xbf22bdc7	-0.6357083
47	0x3eaa1a28	0.3322308
48	0x3ec88fdc	0.39172256
49	0xbdc9af60	-0.09847903
50	0xbeff034f	-0.49807212
51	0x3f3a0fc8	0.7268033
52	0x3e74da14	0.23911315
53	0x3f8f51fe	1.1196897
54	0x3e3001e0	0.17188215
55	0x3ca04a32	0.01956663
56	0xbe31813b	-0.17334454
57	0x3f56378a	0.83678496
58	0xbe90e4f3	-0.28299674
59	0xbddfe037	-0.109314375
60	0x3e142924	0.14468819
61	0xbf95ce7f	-1.1703643
62	0xbe8a740e	-0.27041668
63	0x3e8d1d47	0.275614
64	0xbdb6bd1a	-0.08922787
65	0xbf909b39	-1.129737
66	0x3ebd5cbe	0.3698482
67	0x3e5f83ee	0.21827671
68	0x3e1e891b	0.15481989
69	0x3f9494d9	1.1607925
70	0xbe901842	-0.28143507
71	0x3d956e04	0.072963744
72	0xbef228cd	-0.47296754
73	0x3d5e667f	0.054296967
74	0x3f7eb681	0.9949723
75	0x3ea084a8	0.3135121
76	0xbe1d8f30	-0.15386653
77	0x3f78c3a0	0.971735
78	0x3e3fddad	0.18736906
79	0xbeafbcd6	-0.34323758
80	0x3de01f30	0.109434485
81	0x3f273c7e	0.6532668
82	0xbc482273	-0.012215245
83	0x3f76eefb	0.96458405
84	0xbe6b8e2a	-0.2300345
85	0x3fa03c42	1.2518389
86	0x3e587af0	0.21140647
87	0xbd6e9a5d	-0.05825268
88	0xbef4beb8	-0.47801757
89	0x3eff3687	0.4984629
90	0xbf1d226c	-0.6138065
91	0x3ec91f45	0.3928167
92	0xbdb9b05f	-0.09066843
93	0x3f82e235	1.0225283
94	0x3e9679b1	0.29389718
95	0xbed203d4	-0.41018546
96	0xbf203719	-0.6258407
97	0xbe8799af	-0.2648444
98	0x3f5b7d69	0.85738236
99	0xbd0f4fc4	-0.03498818
100	0x3f625141	0.88405234
101	0xbe7a32dd	-0.24433465
102	0x3d739ee1	0.05947769
103	0x3ebc268a	0.36748153
104	0xbf252844	-0.64514565
105	0x3e7cf8ef	0.24704336
106	0x3f30d946	0.6908153
107	0x3d98fafe	0.07469748
108	0x3ec785f3	0.38969383
109	0x3f131f89	0.57469994
110	0x3ebbe35a	0.36696893
111	0x3f19277c	0.59825873
112	0xbef8fd3a	-0.48630697
113	0xbe4c0417	-0.19923435
114	0x3da099dd	0.07841847
115	0x3f6f7256	0.9353384
116	0x3f14e08c	0.5815513
117	0xbf5a4d58	-0.8527427
118	0xbe88c9e0	-0.26716518
119	0x3e95d1f0	0.29261732
120	0x3e2c7a93	0.16843633
121	0x3f18556b	0.5950534
122	0x3d2dc83e	0.042427294
123	0xbf867a50	-1.0506077
124	0xbdeccbb8	-0.11562294
125	0xbee57f99	-0.44823912
126	0xbf4f697e	-0.81020343
127	0xbf1853aa	-0.5950266
128	0xbd628d0c	-0.055310294
129	0xbe4cb342	-0.19990256
130	0x3f934911	1.1506673
131	0xbe720647	-0.23635207
132	0xbf00c731	-0.5030394
133	0xbef7301d	-0.48278895
134	0xbf136477	-0.5757517
135	0xbf1c984b	-0.6116988
136	0xbf2920f3	-0.660659
137	0xbf730b08	-0.9493871
138	0x3e967bf7	0.29391453
139	0xbc8e0b7b	-0.017339459
140	0xbe44b57c	-0.19209856
141	0xbef3bcf4	-0.47605097
142	0xbf3b1805	-0.73083526
143	0xbf26b802	-0.65124524
144	0x3f02991c	0.51014876
145	0x3d6395cd	0.055562783
146	0xbf561bbd	-0.83636075
147	0xbeefb47e	-0.46817392
148	0xbf58a5d5	-0.8462804
149	0xbef21025	-0.47277942
150	0x3eaf176e	0.34197563
151	0xbe2a6e2e	-0.16643593
152	0x3b0307ef	0.0019993742
153	0xbf9ca8a3	-1.2238964
154	0x3e8b876d	0.2725176
155	0xbdbe9074	-0.09304896
156	0xbf891c97	-1.071185
157	0x3e65e38b	0.22450082
158	0xbe35dea0	-0.17760706
159	0x3ec036f0	0.37541914
160	0x3da15b61	0.07878757
161	0x3f080db8	0.53145933
162	0x3f312b98	0.69207144
163	0xbf1a8ef5	-0.60374385
164	0xbe1ddc45	-0.15416057
165	0x3f150ce2	0.5822278
166	0x3f29ac9e	0.6627902
167	0x3f1554cd	0.5833252
168	0xbe96ab7f	-0.29427716
169	0xbf56d960	-0.8392544
170	0x3d60dddf	0.054899093
171	0x3f12250c	0.5708778
172	0xbf1ac9f6	-0.6046442
173	0x3ecc672d	0.39922467
174	0xbe637a9c	-0.2221474
175	0x3f2adb19	0.66740566
176	0x394fcad8	0.00019816624
177	0x3eab7f77	0.33495685
178	0xbf6b6deb	-0.91964597
179	0x3ed4b957	0.41547653
180	0xbf0795ae	-0.5296277
181	0x3de3cef7	0.1112346
182	0x3e1ffdfd	0.15624233
183	0x3f5a8aa7	0.85367817
184	0xbf191ed6	-0.59812677
185	0xbd44768f	-0.04796463
186	0x3f44dcac	0.7689922
187	0x3efee479	0.49783686
188	0xbde4536d	-0.11148725
189	0x3ed76c50	0.42074823
190	0xbf663c51	-0.89935786
191	0x3def9809	0.1169892
192	0x3f1e1266	0.61746824
193	0xbeb027b5	-0.34405294
194	0xbe509fc4	-0.20373446
195	0x3f406bc0	0.75164413
196	0x3f8ad37a	1.0845788
197	0x3e7ef6c2	0.24898818
198	0x3ecd3529	0.4007962
199	0x3d6eed41	0.05833173
200	0x3e898717	0.26860878
201	0xbf924405	-1.1427008
202	0xbe982e1c	-0.2972268
203	0xbe18bc7a	-0.14915648
204	0xbca5dfa6	-0.020248245
205	0xbee8c406	-0.45462054
206	0x3f15a063	0.58447856
207	0xbf5ac575	-0.85457546
208	0xbebe127f	-0.37123486
209	0xbe993b4b	-0.2992805
210	0x3f27fce1	0.6562024
211	0x3f1fc3f5	0.6240838
212	0xba39cab9	-0.0007087398
213	0xbf438286	-0.7637104
214	0x3de6ef12	0.11276068
215	0xbf2f5341	-0.6848641
216	0xbe6c755f	-0.23091649
217	0xbf1bc2ac	-0.6084392
218	0xbf0e7235	-0.55643016
219	0x3ef2e635	0.4744126
220	0x3da56d24	0.080774575
221	0xbf003917	-0.5008711
222	0x3f5eee97	0.8708281
223	0x3ec5146c	0.38492143
224	0xbed5d52d	-0.41764203
225	0x3e02c4a6	0.12770328
226	0xbf542fbd	-0.8288534
227	0x3f1db216	0.6159986
228	0xbe662699	-0.22475661
229	0x3e2a47bf	0.16628931
230	0x3f40da42	0.75333035
231	0x3f29bcc0	0.66303635
232	0xbf413d18	-0.75483847
233	0x3f0caa6b	0.5494754
234	0x3f0503f1	0.5195914
235	0x3d76d01b	0.06025706
236	0x3f23ef49	0.64036995
237	0xbdf7db81	-0.12102414
238	0xbf3e2b50	-0.7428484
239	0x3d65c409	0.056095157
240	0xbe9b789f	-0.30365464
241	0xbf18ff86	-0.597649
242	0xbf43207e	-0.76221454
243	0xbe9277a6	-0.2860691
244	0xbe9b9f14	-0.30394804
245	0x3f839e6e	1.0282724
246	0xbe09d629	-0.13460602
247	0xbea478da	-0.32123452
248	0xbf9a502d	-1.2055718
249	0xbe572516	-0.21010241
250	0xbe4d04a8	-0.20021307
251	0xbe86b757	-0.26311752
252	0x3eb76121	0.3581629
253	0x3f196d8f	0.599328
254	0x3f49a3d9	0.78765637
255	0x3ec90b30	0.39266348

ray_torchmodel._hidden_layers/_hidden_layers/0/_model/_model/0/Gemm.bias f4 [64]
0	0x3f280d39	0.65645176
1	0xbf122c06	-0.57098424
2	0xbd0e37eb	-0.034721296
3	0x3e7664ba	0.24061862
4	0x3e8b6332	0.27224118
5	0xbe9fb721	-0.31194404
6	0x3e412ebb	0.18865483
7	0xbe14cd08	-0.14531338
8	0xbe61cba8	-0.22050345
9	0x3e329552	0.17439774
10	0xbd19b8e2	-0.037529834
11	0x3d94ce61	0.07265926
12	0x3e614e4c	0.22002524
13	0xbf301ccc	-0.6879394
14	0xbef81112	-0.48450524
15	0x3d962c58	0.07332677
16	0xbcec40fb	-0.028839579
17	0xbe76060c	-0.24025744
18	0x3e45edc8	0.19328988
19	0xbf0da290	-0.55326176
20	0x3d17697e	0.03696584
21	0x3e141204	0.14459997
22	0xbf824708	-1.0177927
23	0x3d3f0869	0.04663888
24	0xbd5ba7f0	-0.053626955
25	0x3cd9193b	0.026501289
26	0xbef57cbe	-0.47946733
27	0xbe677f95	-0.22607262
28	0xbd0a55bd	-0.033773173
29	0x3f2f15f6	0.68392885
30	0x3ca084d6	0.019594591
31	0xbd7b5836	-0.06136342
32	0xbeba227c	-0.36354434
33	0x3e92733b	0.2860354
34	0x3e168ae6	0.14701423
35	0x3e6f5e18	0.23375738
36	0xbe89455d	-0.26810732
37	0xbd8fcf57	-0.07021969
38	0x3ed0dd16	0.40793675
39	0xbdaf70c4	-0.0856643
40	0xbec05576	-0.37565202
41	0xbdbd7158	-0.09250134
42	0xbda347d7	-0.07972687
43	0xbecdeca2	-0.402196
44	0x3da3a3f2	0.079902545
45	0xbe128729	-0.14309372
46	0xbdcc704b	-0.09982356
47	0x3e48a3d3	0.19593744
48	0x3c844b46	0.016149174
49	0xbe60d024	-0.219544
50	0xbdfc5be4	-0.12322214
51	0x3e5cd66b	0.21566169
52	0x3e7b2112	0.24524334
53	0x3e57fbda	0.21092167
54	0xbde943b7	-0.11389869
55	0xbd495c7c	-0.049160466
56	0x3d11d0ff	0.035599705
57	0xbc7a096d	-0.015261036
58	0xbf1ca96c	-0.6119602
59	0x3eab4307	0.33449575
60	0x3ea8d5d4	0.32975638
61	0xbf283854	-0.6571095
62	0x3e7ba023	0.24572806
63	0xbf07ae76	-0.5300058

ray_torchmodel._hidden_layers/_hidden_layers/1/_model/_model/0/Gemm.weight f4 [64, 64]
0	0x3d1d72b4	0.038439468
1	0xbe381b66	-0.17979202
2	0x3dea47b9	0.11439461
3	0x3d4b59c9	0.049646173
4	0xbe044d08	-0.1292001
5	0xbd4de84e	-0.05027037
6	0xbe8c33e5	-0.27383342
7	0xbdcd8552	-0.100351945
8	0x3e76002e	0.24023506
9	0x3ce0d495	0.027445117
10	0xbdb6a001	-0.08917237
11	0xbd83a521	-0.0642798
12	0xbea1598e	-0.31513637
13	0xbd3179ab	-0.043328922
14	0x3e91d948	0.28486085
15	0x3e8a3177	0.26990864
16	0xbe8a98d3	-0.2706972
17	0xbb9671df	-0.004591211
18	0xbdeb6d6c	-0.1149548
19	0x3def1f4a	0.1167589
20	0xbe1d4b78	-0.1536082
21	0x3e8a1b56	0.2697398
22	0x3e8b2ee3	0.2718421
23	0x3d857e26	0.065182015
24	0xbe370356	-0.17872366
25	0x3e2fa2f5	0.17152007
26	0xbdc962ce	-0.098332986
27	0x3e3abb3d	0.18235488
28	0xbdb90ee6	-0.09036045
29	0x3de8f235	0.11374322
30	0xbe3673aa	-0.1781756
31	0xbad0ff92	-0.0015945307
32	0xbdb14f43	-0.08657696
33	0x3d824686	0.063611075
34	0x3d565eff	0.05233669
35	0xbe79c8f9	-0.24393071
36	0x3e314a68	0.1731354
37	0xbeefe9f4	-0.4685818
38	0xbdb830fa	-0.089937165
39	0xbc53273b	-0.012887771
40	0x3d294b97	0.041331854
41	0x3db5b07d	0.08871553
42	0x3dad4187	0.08459764
43	0x3e4dc854	0.2009595
44	0x3c8bc804	0.017063148
45	0x3d80542c	0.062660545
46	0xbe31ac14	-0.17350799
47	0xbe6e6583	-0.23280911
48	0xbdd38011	-0.10327161
49	0x3ed6060d	0.4180149
50	0xbd735a91	-0.059412543
51	0xbc224710	-0.009904638
52	0x3e155725	0.14584024
53	0x3d1b261f	0.037878152
54	0x3eb79d3a	0.35862142
55	0x3d296661	0.0413574
56	0x3e0a5419	0.13508643
57	0x3c99296b	0.018696507
58	0x3e0dfae5	0.1386524
59	0xbe8409a0	-0.25788593
60	0x3ec99f64	0.39379418
61	0x3e36b1cc	0.17841262
62	0xbd0c9dad	-0.03433006
63	0xbd8bfdaf	-0.06835496
64	0x3d4f41f5	0.05060001
65	0xbe713686	-0.23555955
66	0xbea9c132	-0.3315521
67	0xbe10914e	-0.1411793
68	0xbdec874b	-0.115492426
69	0x3dbc80bd	0.092042424
70	0xbeb6ad9c	-0.35679328
71	0xbe10c5c6	-0.14137945
72	0x3d24c9b4	0.04023142
73	0xbdf3ce86	-0.119046256
74	0xbf09136a	-0.5354525
75	0x3db9d925	0.0907462
76	0x3e7eb15e	0.24872348
77	0x3e370563	0.17873149
78	0xbe8b022d	-0.27150097
79	0x3e938d65	0.28818813
80	0x3e71fc10	0.2363131
81	0xbe476f68	-0.19476092
82	0x3e96259b	0.29325566
83	0x3d81e4e5	0.06342486
84	0x3e418270	0.18897414
85	0xbe961027	-0.29309198
86	0xbe35cf47	-0.17754851
87	0xbe2cebbf	-0.16886805
88	0x3e0b8f8c	0.13628978
89	0xbae7fd55	-0.00176994
90	0x3b461dbe	0.003023013
91	0x3cef73fb	0.029230108
92	0xbd229bcf	-0.039699372
93	0xbe6b4015	-0.22973664
94	0x3e234285	0.15943344
95	0xbda0718e	-0.07834159
96	0x3def0075	0.11670009
97	0xbbc8375c	-0.006110115
98	0x3e0b1850	0.13583493
99	0xbe4831af	-0.19550203
100	0xbe1f165e	-0.15535876
101	0xbd18d408	-0.037311584
102	0xbd218c12	-0.039440222
103	0x3e9f4766	0.3110916
104	0xbe875597	-0.26432487
105	0xbc82b7d1	-0.015956791
106	0xbe03cdb7	-0.12871443
107	0x3ea83fbd	0.32861128
108	0xbd087a88	-0.03331998
109	0xbea4bc0b	-0.32174715
110	0x3c5d86c3	0.013520899
111	0xbddd5602	-0.1080742
112	0xbe27ded7	-0.163936
113	0xbe319239	-0.17340936
114	0x3eab5845	0.33465782
115	0x3e29cb45	0.16581447
116	0x3de62dd8	0.11239213
117	0xbeca46f1	-0.3950725
118	0xbe169347	-0.1470462
119	0xbe543ce9	-0.2072636
120	0x3e455c82	0.1927357
121	0x3e20665b	0.15664046
122	0xbdab589b	-0.083665095
123	0x3dd02a62	0.10164334
124	0xbe6c3746	-0.2306796
125	0x3cb81599	0.022471236
126	0xbdc17763	-0.09446599
127	0x3cd9b9e4	0.026577897
128	0x3e31051d	0.17287107
129	0xbe4e086a	-0.20120397
130	0x3dcf7d6c	0.10131344
131	0x3e974d44	0.29551136
132	0x3b691102	0.0035563116
133	0x3ea9a747	0.33135435
134	0x3db0b879	0.08628935
135	0xbe4eb0e1	-0.20184661
136	0x3e5359b3	0.20639686
137	0x3ddb4ac7	0.10707622
138	0x3ebcc6ba	0.36870366
139	0x3ce5c132	0.028046224
140	0xbe064a45	-0.13114269
141	0x3d73681a	0.05942545
142	0xbe1a79cc	-0.15085524
143	0x3e8e3da4	0.27781403
144	0xbacc986c	-0.001560939
145	0x3ea46d6f	0.3211474
146	0xbde676b8	-0.112531126
147	0xbe47689f	-0.19473504
148	0xbe1f484d	-0.15554924
149	0xbe4305f6	-0.19045243
150	0x3e2f50de	0.17120692
151	0xbd35a2c3	-0.044344675
152	0xbe478160	-0.19482946
153	0x3e0b80bb	0.13623326
154	0x3df5790d	0.11985979
155	0x3dcfb02b	0.10141023
156	0xbc59ed1c	-0.01330116
157	0xbe1336ec	-0.1437642
158	0x3dc66d8f	0.096888654
159	0xbec05244	-0.37562764
160	0x3da17257	0.07883137
161	0x3d1e39a1	0.038629178
162	0xbdb0858e	-0.086192235
163	0xbd3fa354	-0.04678662
164	0xbd0f5481	-0.0349927
165	0xbe1a92fa	-0.1509513
166	0xbecb4d15	-0.39707246
167	0xbd9d7d1d	-0.07689879
168	0xbd98cfe7	-0.07461529
169	0x3e614bc9	0.22001566
170	0xbd0505fe	-0.032476418
171	0xbe77ecdd	-0.2421145
172	0xbe2e26b8	-0.17006958
173	0x3c952c81	0.018209698
174	0xbe5bec2b	-0.2147681
175	0x3c805958	0.015667602
176	0xbc723063	-0.014782044
177	0x3e9293c1	0.28628352
178	0x3db5bcde	0.08873914
179	0xbdb810e7	-0.08987599
180	0x3dd58511	0.10425771
181	0xbe74392b	-0.23849933
182	0x3e610796	0.2197555
183	0xbded8f2f	-0.11599576
184	0xbe697faf	-0.22802614
185	0xbd321dd0	-0.043485463
186	0x3e53dcc8	0.2068969
187	0xbe4ac774	-0.19802648
188	0xbdc72bca	-0.09725149
189	0x3eb38672	0.3506351
190	0xbcc91959	-0.02454822
191	0x3cd10e34	0.025519468
192	0x3d9305ac	0.07178816
193	0x3ea1ed02	0.31626135
194	0xbcc5801f	-0.024108944
195	0xbe39c91f	-0.18143128
196	0x3e3db232	0.18525007
197	0xbe828581	-0.2549248
198	0x3f046a25	0.51724464
199	0x3a93d5fe	0.0011278985
200	0xbe029589	-0.12752356
201	0x3e83532a	0.25649387
202	0xbde019fb	-0.109424554
203	0x3e5ade37	0.2137383
204	0x3e2d1b1f	0.16904877
205	0xbe2abea1	-0.16674282
206	0xbe84d103	-0.25940713
207	0xbe77c70b	-0.24197023
208	0xbd2b1c36	-0.04177495
209	0xbe823ab6	-0.25435418
210	0x3bec1a24	0.0072052646
211	0xbdb402fe	-0.08789633
212	0xbae501f4	-0.0017471896
213	0x3e76d845	0.24105938
214	0xbca4cce2	-0.020117227
215	0xbe38c71c	-0.18044704
216	0x3cc92f8f	0.02455881
217	0xbda5528d	-0.08072386
218	0xbecbffbe	-0.39843553
219	0x3dc09b66	0.0940464
220	0x3e73774f	0.23775981
221	0x3e33fe93	0.17577581
222	0x3d551b0e	0.052027754
223	0xbd995942	-0.07487728
224	0x3d4bbf65	0.049743075
225	0x3c8437d4	0.016139902
226	0x3dadc6a1	0.08485151
227	0xbd1ed2b6	-0.03877517
228	0x3d6744b1	0.056461994
229	0x3ce09905	0.027416715
230	0x3e8d1bc3	0.27560243
231	0xbe92344a	-0.28555518
232	0x3d508902	0.05091191
233	0xbe03cb70	-0.12870574
234	0x3c5ecc5b	0.013598527
235	0xbe59f24f	-0.2128384
236	0xbd47122c	-0.048601314
237	0x3d4f49bb	0.050607424
238	0xbe9d3e28	-0.30711484
239	0xbd3e9103	-0.046525013
240	0x3d288a90	0.04114777
241	0xbe6ebf46	-0.23315153
242	0xbe031394	-0.12800437
243	0xbe0f794c	-0.14011115
244	0xbe023882	-0.12716869
245	0xbccb8f1e	-0.024848517
246	0x3d82b871	0.06382836
247	0x3ded7bc0	0.11595869
248	0x3d0f130c	0.034930274
249	0x3dcc044a	0.099617556
250	0xbe1013fe	-0.14070126
251	0x3d940593	0.07227626
252	0x3c0369f3	0.008020866
253	0xbe3d7ff8	-0.18505847
254	0x3d62c1ab	0.055360477
255	0x3e86797b	0.26264557

ray_torchmodel._hidden_layers/_hidden_layers/1/_model/_model/0/Gemm.bias f4 [64]
0	0x3c4eae78	0.012614839
1	0xbeea79e3	-0.45796117
2	0xbe1041f9	-0.14087667
3	0x3d9bc67e	0.07606219
4	0xbed3ea18	-0.41389537
5	0x3e1b9f78	0.15197551
6	0xbd047f4c	-0.032347962
7	0x3eafe6ed	0.3435587
8	0xbd94bea8	-0.07262927
9	0xbeac6829	-0.33673218
10	0xbf3720cb	-0.71534413
11	0x3ce7ec98	0.028311059
12	0x3e315aca	0.1731979
13	0x3f21aac2	0.6315118
14	0xbe8392f6	-0.2569806
15	0x3ecf4deb	0.40489134
16	0x3d5233ac	0.05131881
17	0xbe0facd5	-0.14030774
18	0x3e43dce1	0.19127227
19	0xbd4a7e18	-0.04943666
20	0x3db30d2f	0.08742749
21	0x3ea324a9	0.31863907
22	0x3e93109f	0.28723618
23	0x3ed52a17	0.41633675
24	0xbd54251e	-0.05179321
25	0xbec97f8d	-0.39355126
26	0x3e303f24	0.17211586
27	0xbe7299ac	-0.23691434
28	0x3ddd1f33	0.107969664
29	0xbd51f523	-0.05125917
30	0x3ee479a9	0.4462407
31	0xbd1124f7	-0.035435643
32	0x3d84d751	0.06486381
33	0x3d6ed922	0.058312543
34	0xbe859389	-0.26089123
35	0xbe78175d	-0.24227662
36	0x3d7c6a57	0.06162485
37	0xbe33e30a	-0.17567077
38	0x3e711b76	0.23545632
39	0x3debcb8a	0.11513431
40	0x3e6c9f4d	0.23107643
41	0x3e90210e	0.2815022
42	0xbc813e05	-0.015776644
43	0xbe2522c4	-0.16126543
44	0x3e14d55f	0.1453452
45	0xbea075bb	-0.3133982
46	0xbf2155f6	-0.6302179
47	0xbe0a6a24	-0.13517052
48	0x3ebaa0f1	0.36450914
49	0x3e6a8e13	0.2290576
50	0x3eb8b455	0.36075082
51	0xbd991cb7	-0.0747618
52	0xbd5307fa	-0.05152128
53	0xbef72053	-0.4826685
54	0x3ee9dcae	0.45676178
55	0xbd8ec95a	-0.069719985
56	0xbe608ef1	-0.21929528
57	0xbdf3604d	-0.11883602
58	0x3d99fff2	0.07519521
59	0xbe45eadb	-0.19327872
60	0x3edad680	0.42741776
61	0xbebcb270	-0.36854887
62	0x3d8495fd	0.064739205
63	0xbad7fcc3	-0.0016478527

ray_torchmodel._logits/_model/_model/0/Gemm.weight f4 [3, 64]
0	0x3ea10b24	0.31453812
1	0xbd9988bf	-0.07496785
2	0x3e17adf6	0.14812455
3	0xbdf7e252	-0.12103714
4	0xbe4ce3b0	-0.20008731
5	0x3e84b5fa	0.25920087
6	0x3c5e6140	0.013572991
7	0xbdcb91b8	-0.09939903
8	0xbcadde55	-0.02122418
9	0xbe0b4fbd	-0.13604636
10	0x3e72006a	0.2363297
11	0xbdf5d8a6	-0.12004213
12	0xbe70fd4a	-0.23534122
13	0xbe7cef0c	-0.24700564
14	0x3e4d3981	0.20041467
15	0x3ddf0169	0.10888941
16	0x3e63115f	0.22174595
17	0xbe4ac56f	-0.19801877
18	0x3e0017cc	0.12509078
19	0xbe993ddc	-0.29930007
20	0xbe901a7e	-0.28145212
21	0x3dcf4da6	0.10122232
22	0x3ddf3e7a	0.10900588
23	0x3e8e42a9	0.27785233
24	0xbdd4d25f	-0.103916876
25	0x3e4f4a81	0.20243265
26	0x3dc0c832	0.09413184
27	0xbe90651e	-0.28202146
28	0xbdeb95cc	-0.11503181
29	0x3e8db750	0.2767892
30	0xbdcaa00f	-0.0989381
31	0x3eb881a7	0.36036417
32	0xbe44bdc2	-0.19213012
33	0x3cfa3d68	0.030546859
34	0xbe29a35d	-0.16566224
35	0xbe4beb3a	-0.1991395
36	0x3ecbab2c	0.3977903
37	0xbde13d1f	-0.10997986
38	0xbea164a0	-0.31522083
39	0xbaa3f3de	-0.0012508591
40	0x3cb4ff7f	0.022094486
41	0x3e877e28	0.26463437
42	0xbe759193	-0.23981313
43	0x3e9f0260	0.310565
44	0x3e3a7302	0.18207934
45	0x3dcb4a30	0.099262595
46	0x3e858e31	0.26085046
47	0x3ea925cf	0.33036658
48	0xbdf8d402	-0.12149812
49	0x3e5403a8	0.2070452
50	0xbe86525d	-0.26234713
51	0x3ca8c9dc	0.020604067
52	0xbe0a6c70	-0.13517928
53	0x3ea1db42	0.31612593
54	0x3d991ca6	0.074761674
55	0xbe201668	-0.15633547
56	0x3ea12337	0.3147218
57	0xbdf8e6d7	-0.12153404
58	0xbe2624f1	-0.1622503
59	0x3d623214	0.05522354
60	0xbd98f4c4	-0.0746856
61	0xbd08e2e2	-0.033419497
62	0x3e801a33	0.25019988
63	0xbd0ca8a6	-0.034340523
64	0xbdd3d0d8	-0.10342568
65	0x3dd37b30	0.103262305
66	0x3da397a4	0.079879075
67	0xbd0271eb	-0.031846922
68	0x3c90bd10	0.017668277
69	0xbd8a6cba	-0.06759019
70	0x3e365e47	0.17809401
71	0xbe6147f6	-0.22000107
72	0x3c2cdad7	0.010550222
73	0x3e2e6426	0.17030391
74	0x3ca7ad0f	0.020468263
75	0x3cd4d930	0.02598247
76	0x3da9b268	0.082859814
77	0xbdf5e4f9	-0.12006564
78	0xbd82ba58	-0.063831985
79	0xbda608b0	-0.08107126
80	0xbdec00f5	-0.1152362
81	0xba0aabb7	-0.000528987
82	0xbdfb1eed	-0.12261758
83	0x3c8acfdd	0.01694482
84	0x3d551873	0.05202527
85	0xbe2b6b4c	-0.1674015
86	0xbd8d37c8	-0.06895405
87	0xbd22a998	-0.03971252
88	0x3d3abfd4	0.045593098
89	0x3e1afac3	0.1513472
90	0xbe2b1382	-0.1670666
91	0x3d96cef1	0.0736369
92	0x3d0f824b	0.035036366
93	0xbdac31f9	-0.08407969
94	0xbe018786	-0.12649354
95	0xbd6844f3	-0.05670638
96	0x3d208053	0.03918488
97	0xbdb67045	-0.089081325
98	0xbbd4d242	-0.0064947912
99	0x3e764454	0.24049503
100	0xbe52ac64	-0.20573574
101	0x3e325011	0.17413355
102	0x3c959ba3	0.01826269
103	0xbc39bef0	-0.011337027
104	0xbdab79fb	-0.08372875
105	0xbd96a507	-0.07355695
106	0x3de0454c	0.10950717
107	0x3ddcafbf	0.107757084
108	0xbe6b2151	-0.22961928
109	0x3dd02ad4	0.10164419
110	0x3d5e5958	0.054284424
111	0xbd8d401d	-0.06896994
112	0xbd8430ce	-0.06454621
113	0x3d37c9fa	0.044870354
114	0xbd8b43b4	-0.06800023
115	0x3ce97943	0.028500205
116	0x3ddcdc3c	0.10784194
117	0xbd8fc39c	-0.070197314
118	0xbdb5c011	-0.088745244
119	0x3db49ba6	0.0881875
120	0xbd966d75	-0.07345096
121	0xbcf3f49e	-0.029779729
122	0xbc2af071	-0.010433302
123	0x3dad8570	0.08472717
124	0xbe057ee4	-0.13036686
125	0x3dd5be06	0.10436635
126	0xbe047638	-0.12935722
127	0x3dad967e	0.0847597
128	0xbe3aa01a	-0.18225136
129	0xbd30d68b	-0.043173354
130	0xbe56fcb1	-0.20994832
131	0x3e0b8ddd	0.13628335
132	0x3e31fea9	0.17382301
133	0xbe42a503	-0.1900826
134	0xbe651084	-0.22369581
135	0x3ea727a9	0.32647446
136	0x3c0a8930	0.00845556
137	0xbd5ee5ef	-0.0544185
138	0xbe785d4a	-0.24254337
139	0x3dbdfd1c	0.092767924
140	0x3e1fcfc4	0.156066
141	0x3ec5418e	0.38526577
142	0xbe0c9526	-0.1372877
143	0xbb0f8515	-0.0021899391
144	0xbd9559f7	-0.0729255
145	0x3e44292b	0.1915633
146	0x3c8c94fb	0.017160883
147	0x3e7afa4a	0.2450954
148	0x3e60a413	0.2193759
149	0x3dade4fd	0.08490942
150	0xbd006cee	-0.031353883
151	0xbe47e6bf	-0.19521616
152	0x3d5e1a04	0.05422403
153	0xbe9f541e	-0.31118864
154	0x3da76b25	0.08174733
155	0x3e1f9ea4	0.1558786
156	0x3dc23663	0.0948303
157	0xbe41a9dd	-0.18912454
158	0x3e65d56d	0.22444697
159	0xbe8d05c8	-0.27543473
160	0x3e1ef15a	0.15521756
161	0x3d83950b	0.06424912
162	0x3e2c48be	0.16824624
163	0xbd3eabc9	-0.046550546
164	0xbe2d1318	-0.16901815
165	0xbd929c21	-0.071586855
166	0x3e8507ad	0.2598242
167	0x3cac01ae	0.020996895
168	0x3dbfbe5b	0.09362479
169	0xbe3aceb9	-0.18242921
170	0x3deb288d	0.11482344
171	0xbed7461f	-0.42045686
172	0x3dab2ec6	0.08358531
173	0xbe6044b8	-0.21901214
174	0xbe9aba58	-0.30220294
175	0xbe779559	-0.24178065
176	0x3e6965f7	0.22792803
177	0xbe8069e5	-0.2508079
178	0x3e932063	0.28735647
179	0xbd5938b6	-0.0530326
180	0xbad3003d	-0.0016098093
181	0xbe6315a3	-0.22176223
182	0x3d14bd13	0.036313128
183	0x3d7ba97a	0.061440922
184	0xbe7e85b8	-0.24855697
185	0x3e137893	0.14401464
186	0x3e3e3137	0.18573461
187	0xbe03f22d	-0.12885351
188	0x3e4138ca	0.1886932
189	0xbddd2483	-0.1079798
190	0xbd93e11a	-0.07220669
191	0xbd80bd16	-0.06286065

ray_torchmodel._logits/_model/_model/0/Gemm.bias f4 [3]
0	0xbd3dd902	-0.046349533
1	0xbe9b0566	-0.30277556
2	0x3eb82107	0.35962698
